vela/img_yolofastest_relu6_256_himax/pcqat_256_vela.tflite (tflite, 401424 bytes, 2 tensors)

main_split_1_command_stream u1 [97228]
00000000: 434f 5031 0100 1000 0610 0000 0000 0610
00000010: 0500 0000 0500 0000 0500 0000 0200 eb5e
00000020: 3001 0000 3040 0000 0000 0000 3101 0100
00000030: 3140 0000 d000 0300 3240 0000 5000 0000
00000040: 1000 0000 3040 0000 5000 0000 3140 0000
00000050: 0000 0300 3240 0000 d000 0000 1000 0000
00000060: 0f01 0100 0040 0000 0000 0000 0140 0000
00000070: 0000 0000 0240 0000 0000 0000 0340 0000
00000080: 0000 0000 0b01 ff00 0c01 ff00 0a01 ff00
00000090: 0401 0200 0640 0000 0100 0000 0540 0000
000000a0: 0003 0000 0440 0000 0300 0000 0901 80ff
000000b0: 0501 0100 0701 0000 0001 0100 0101 0100
000000c0: 0301 0000 0201 0000 1f01 0100 1040 0000
000000d0: 0000 0400 1140 0000 0000 0000 1240 0000
000000e0: 0000 0000 1340 0000 0000 0000 1b01 7f00
000000f0: 1c01 7f00 1a01 7f00 1201 7f00 1101 7f00
67 79 80 49 1 0 16 0
6 16 0 0 0 0 6 16
5 0 0 0 5 0 0 0
5 0 0 0 2 0 235 94
48 1 0 0 48 64 0 0
0 0 0 0 49 1 1 0
49 64 0 0 208 0 3 0
50 64 0 0 80 0 0 0
16 0 0 0 48 64 0 0
80 0 0 0 49 64 0 0
0 0 3 0 50 64 0 0
208 0 0 0 16 0 0 0
15 1 1 0 0 64 0 0
0 0 0 0 1 64 0 0
0 0 0 0 2 64 0 0
0 0 0 0 3 64 0 0
0 0 0 0 11 1 255 0
12 1 255 0 10 1 255 0
4 1 2 0 6 64 0 0
1 0 0 0 5 64 0 0
0 3 0 0 4 64 0 0
3 0 0 0 9 1 128 255
5 1 1 0 7 1 0 0
0 1 1 0 1 1 1 0
3 1 0 0 2 1 0 0
31 1 1 0 16 64 0 0
0 0 4 0 17 64 0 0
0 0 0 0 18 64 0 0
0 0 0 0 19 64 0 0
0 0 0 0 27 1 127 0
28 1 127 0 26 1 127 0
18 1 127 0 17 1 127 0

main_split_1_flash u1 [302720]
00000000: 0215 0000 00e3 5a01 5524 f712 0000 0047
00000010: 1e9d 6a24 0629 0000 0036 0439 5127 de25
00000020: 0000 00f0 f40d 6827 3321 0000 0043 5a75
00000030: 6525 9f1c 0000 0086 2b2e 4927 1d5a 0000
00000040: 00e8 64f9 5b26 2e35 0000 0092 ef78 5b27
00000050: 5203 d4ff fd5f e52f a807 c796 45cd 1959
00000060: 8857 f776 46f6 c565 3525 d5be 3eae 8dfd
00000070: bc8c eccb bbd0 489a b3c9 935f d1f4 3414
00000080: 4220 648d 42be 8f86 1b5d fc35 a2ed 4ad4
00000090: 961e 1987 9d20 340c c979 525f 5070 e208
000000a0: c147 12af f68f 3262 6064 62ed 9276 0d3c
000000b0: 5a8d 2751 8d04 dc91 2eff 65dd 1039 874f
000000c0: daa6 01c8 e2e4 69a6 abeb 6261 0247 12d7
000000d0: 0b00 3ed8 af09 2149 1ee2 714e 3e13 ac88
000000e0: f02e 13bd 1b62 b111 f17f 2cb0 3108 617c
000000f0: 4ac9 b695 ccb8 4041 8001 44bc 2181 1359
2 21 0 0 0 227 90 1
85 36 247 18 0 0 0 71
30 157 106 36 6 41 0 0
0 54 4 57 81 39 222 37
0 0 0 240 244 13 104 39
51 33 0 0 0 67 90 117
101 37 159 28 0 0 0 134
43 46 73 39 29 90 0 0
0 232 100 249 91 38 46 53
0 0 0 146 239 120 91 39
82 3 212 255 253 95 229 47
168 7 199 150 69 205 25 89
136 87 247 118 70 246 197 101
53 37 213 190 62 174 141 253
188 140 236 203 187 208 72 154
179 201 147 95 209 244 52 20
66 32 100 141 66 190 143 134
27 93 252 53 162 237 74 212
150 30 25 135 157 32 52 12
201 121 82 95 80 112 226 8
193 71 18 175 246 143 50 98
96 100 98 237 146 118 13 60
90 141 39 81 141 4 220 145
46 255 101 221 16 57 135 79
218 166 1 200 226 228 105 166
171 235 98 97 2 71 18 215
11 0 62 216 175 9 33 73
30 226 113 78 62 19 172 136
240 46 19 189 27 98 177 17
241 127 44 176 49 8 97 124
74 201 182 149 204 184 64 65
128 1 68 188 33 129 19 89
