vela/img_yolofastest_relu6_256_himax/xl_pcqat_256_vela.tflite (tflite, 860880 bytes, 2 tensors)

main_split_1_command_stream u1 [153580]
67 79 80 49 1 0 16 0
6 16 0 0 0 0 6 16
5 0 0 0 5 0 0 0
5 0 0 0 2 0 243 149
48 1 0 0 48 64 0 0
0 0 0 0 49 1 1 0
49 64 0 0 0 83 3 0
50 64 0 0 160 0 0 0
16 0 0 0 48 64 0 0
160 0 0 0 49 64 0 0
0 80 3 0 50 64 0 0
112 1 0 0 16 0 0 0
15 1 1 0 0 64 0 0
0 0 0 0 1 64 0 0
0 0 0 0 2 64 0 0
0 0 0 0 3 64 0 0
0 0 0 0 11 1 3 0
12 1 3 0 10 1 255 0
4 1 2 0 6 64 0 0
1 0 0 0 5 64 0 0
0 3 0 0 4 64 0 0
3 0 0 0 9 1 128 255
5 1 1 0 7 1 0 0
0 1 1 0 1 1 1 0
3 1 0 0 2 1 0 0
31 1 1 0 16 64 0 0
0 0 3 0 17 64 0 0
0 0 0 0 18 64 0 0
0 0 0 0 19 64 0 0
0 0 0 0 27 1 1 0
28 1 1 0 26 1 127 0
18 1 1 0 17 1 127 0
00000000: 434f 5031 0100 1000 0610 0000 0000 0610
00000010: 0500 0000 0500 0000 0500 0000 0200 f395
00000020: 3001 0000 3040 0000 0000 0000 3101 0100
00000030: 3140 0000 0053 0300 3240 0000 a000 0000
00000040: 1000 0000 3040 0000 a000 0000 3140 0000
00000050: 0050 0300 3240 0000 7001 0000 1000 0000
00000060: 0f01 0100 0040 0000 0000 0000 0140 0000
00000070: 0000 0000 0240 0000 0000 0000 0340 0000
00000080: 0000 0000 0b01 0300 0c01 0300 0a01 ff00
00000090: 0401 0200 0640 0000 0100 0000 0540 0000
000000a0: 0003 0000 0440 0000 0300 0000 0901 80ff
000000b0: 0501 0100 0701 0000 0001 0100 0101 0100
000000c0: 0301 0000 0201 0000 1f01 0100 1040 0000
000000d0: 0000 0300 1140 0000 0000 0000 1240 0000
000000e0: 0000 0000 1340 0000 0000 0000 1b01 0100
000000f0: 1c01 0100 1a01 7f00 1201 0100 1101 7f00

main_split_1_flash u1 [705824]
89 148 254 255 255 55 165 43
82 38 159 171 255 255 255 48
15 254 71 39 235 242 253 255
255 83 242 121 124 39 78 190
255 255 255 135 192 137 75 39
145 68 0 0 0 133 14 102
72 39 53 120 1 0 0 137
181 13 78 39 71 36 0 0
0 59 42 200 88 39 0 0
0 128 255 251 208 123 121 58
68 70 1 0 0 78 136 93
117 40 157 36 0 0 0 165
45 160 119 38 90 75 1 0
0 224 35 160 80 39 246 63
0 0 0 128 176 185 64 38
104 66 0 0 0 74 124 219
111 39 9 70 0 0 0 130
157 255 67 38 228 72 0 0
0 222 24 78 77 39 108 41
1 0 0 132 38 197 69 39
178 6 84 250 253 127 70 229
47 133 184 55 198 21 101 228
115 50 157 250 248 181 53 117
148 163 194 93 45 157 252 11
107 250 134 38 150 98 175 159
112 125 153 231 171 80 132 72
101 123 113 252 18 206 107 158
180 62 33 174 73 60 4 234
235 56 55 37 181 122 61 172
242 48 78 90 123 135 43 234
192 65 228 196 225 87 198 112
194 86 232 3 37 126 24 137
00000000: 5994 feff ff37 a52b 5226 9fab ffff ff30
00000010: 0ffe 4727 ebf2 fdff ff53 f279 7c27 4ebe
00000020: ffff ff87 c089 4b27 9144 0000 0085 0e66
00000030: 4827 3578 0100 0089 b50d 4e27 4724 0000
00000040: 003b 2ac8 5827 0000 0080 fffb d07b 793a
00000050: 4446 0100 004e 885d 7528 9d24 0000 00a5
00000060: 2da0 7726 5a4b 0100 00e0 23a0 5027 f63f
00000070: 0000 0080 b0b9 4026 6842 0000 004a 7cdb
00000080: 6f27 0946 0000 0082 9dff 4326 e448 0000
00000090: 00de 184e 4d27 6c29 0100 0084 26c5 4527
000000a0: b206 54fa fd7f 46e5 2f85 b837 c615 65e4
000000b0: 7332 9dfa f8b5 3575 94a3 c25d 2d9d fc0b
000000c0: 6bfa 8626 9662 af9f 707d 99e7 ab50 8448
000000d0: 657b 71fc 12ce 6b9e b43e 21ae 493c 04ea
000000e0: eb38 3725 b57a 3dac f230 4e5a 7b87 2bea
000000f0: c041 e4c4 e157 c670 c256 e803 257e 1889
